model/model.pth (torch, 17216 bytes, 4 tensors)

linear1.weight f4 [256, 11]
0	0xbe80e3f4	-0.25173914
1	0xba84f45f	-0.0010143629
2	0x3e10f484	0.14155775
3	0xbe748f3d	-0.23882766
4	0xbe7b4846	-0.24539289
5	0x3e1d158b	0.15340249
6	0xbde46708	-0.11152464
7	0x3ea36dba	0.31919652
8	0x3e562d47	0.2091571
9	0x3d88fa78	0.06688398
10	0x3e47da4a	0.19516864
11	0x3e82b395	0.25527635
12	0x3e145b21	0.14487888
13	0xbd8f502d	-0.06997714
14	0x3e013cdd	0.12620874
15	0xbd02dc35	-0.031948287
16	0x3c7221f6	0.014778605
17	0x3dd83d17	0.10558527
18	0x3d036b07	0.03208449
19	0x3ea7e9a2	0.32795435
20	0x3eaa68a7	0.33282968
21	0x3e63489b	0.22195666
22	0xbe8d1e8a	-0.27562362
23	0xbde15c94	-0.11003986
24	0xbcbbe030	-0.02293405
25	0xbe0c3c2d	-0.1369483
26	0xbe470ae6	-0.19437751
27	0xbe0bbcc0	-0.13646221
28	0xbdddcae0	-0.10829711
29	0xbbe8ea63	-0.007108019
30	0xbd343768	-0.043998152
31	0x3e02d81c	0.12777752
32	0xbe124395	-0.14283593
33	0x3e5073cd	0.20356674
34	0x3e7d13a4	0.24714524
35	0x3df6abd8	0.12044495
36	0xbe32a13c	-0.17444319
37	0x3e36e717	0.17861591
38	0xbddbaa5d	-0.107258536
39	0x3d811389	0.06302554
40	0x3dbc82f0	0.09204662
41	0xbbb1176f	-0.005404405
42	0xbc84a34a	-0.016191144
43	0x3e637be8	0.22215235
44	0x3e3e262c	0.18569249
45	0xbc1ce5a4	-0.009576235
46	0x3dce3603	0.10068896
47	0xbe2fd340	-0.17170429
48	0xbc915779	-0.017741906
49	0xbddebeac	-0.108762115
50	0x3d9fd08d	0.0780345
51	0xbe944679	-0.28960016
52	0x3db1c2ba	0.08679719
53	0x3e39f8ed	0.18161364
54	0xbe4760fb	-0.19470589
55	0x3bcfcae9	0.0063413274
56	0x3bdd9f80	0.0067633986
57	0xbe585ec8	-0.21129906
58	0xbd2662a0	-0.0406214
59	0x3e6df4df	0.23237942
60	0x3e5cff54	0.21581775
61	0x3e14ffc3	0.1455069
62	0xbe8ebbe8	-0.27877736
63	0xbe037b74	-0.12840062
64	0xbe1ce7ae	-0.15322754
65	0x3e62f11c	0.22162288
66	0xbe6dd4e4	-0.23225743
67	0xbde80c88	-0.11330515
68	0xbe107732	-0.1410797
69	0xbdb52eaa	-0.08846791
70	0x3e0b5f17	0.13610493
71	0x3e1a6a5f	0.1507964
72	0x3e2e609e	0.17029044
73	0x3e4e2ff4	0.2013548
74	0x3df3426a	0.11877902
75	0x3e84ec65	0.25961605
76	0xbdacf192	-0.084445134
77	0x3e13332e	0.14374992
78	0xbbb81fdd	-0.005619033
79	0x3e12374e	0.1427891
80	0xbd884d90	-0.06655419
81	0x3e06c157	0.13159691
82	0x3d91f14c	0.07126102
83	0x3e68d129	0.22736038
84	0x3e7287eb	0.23684661
85	0xbeb76839	-0.35821703
86	0x3e648870	0.22317672
87	0x3dba39d4	0.09093061
88	0xbe194df8	-0.14971149
89	0x3e2b2f49	0.16717257
90	0x3e557ca1	0.20848323
91	0x3e7f6d2e	0.24943992
92	0xbce49abb	-0.027905812
93	0x3e1d6131	0.15369107
94	0xbe21fae1	-0.15818359
95	0x3e220781	0.15823175
96	0xbe6aea04	-0.22940832
97	0x3dbac4eb	0.0911959
98	0x3e70f96c	0.23532647
99	0x3e4aadd5	0.19792874
100	0x3d7fb251	0.062425915
101	0x3e1f656f	0.15566038
102	0x3e6578cc	0.22409362
103	0x3d8b7d88	0.068110526
104	0x3c8a512a	0.016884405
105	0x3e0f54cf	0.13997196
106	0x3e932351	0.28737882
107	0xbd97d987	-0.07414537
108	0xbd1f1269	-0.038835917
109	0x3e0ea3d4	0.13929683
110	0xbdf4aa23	-0.119465135
111	0xbe92ccab	-0.28671774
112	0x3e5e7e0f	0.21727775
113	0xbbc1bfb6	-0.0059127463
114	0x3db17f44	0.08666852
115	0x3e433556	0.19063315
116	0xbddba93d	-0.10725639
117	0xbd8682b9	-0.06567902
118	0xbe302b1c	-0.17203945
119	0xbd266e1c	-0.040632352
120	0xbea1b3a6	-0.31582373
121	0x3e204023	0.15649466
122	0xbe852458	-0.2600429
123	0x3e1ba0ec	0.15198106
124	0xbe432ee0	-0.1906085
125	0x3dcc88d7	0.09987038
126	0x3e76046f	0.24025129
127	0xbe53a644	-0.20668894
128	0xbd3052c2	-0.043047674
129	0xbd74b235	-0.059740264
130	0x3e92d267	0.2867615
131	0xbdd8bd61	-0.10582996
132	0xbe7b49ae	-0.24539825
133	0xbe8a4f5e	-0.27013677
134	0x3e7190fb	0.23590462
135	0xbe6c5d70	-0.23082519
136	0x3dbd2194	0.0923492
137	0x3e14c2c6	0.14527425
138	0x3e887de0	0.26658535
139	0xbdbe36ac	-0.092877716
140	0xbe8785b2	-0.2646919
141	0xbe984f34	-0.29747927
142	0xbdccc404	-0.099983245
143	0xbe7132cd	-0.23554535
144	0xbdd21ec2	-0.10259773
145	0xbdfcf62c	-0.12351641
146	0x3e5bc3d2	0.21461418
147	0x3be5d540	0.007013947
148	0xbdbc88fa	-0.09205814
149	0xbd29a570	-0.04141754
150	0xbe6fb16a	-0.23407522
151	0xbe854666	-0.26030272
152	0xbe59e52f	-0.21278833
153	0xbe9905ef	-0.2988734
154	0xbe9e4628	-0.309129
155	0x3e1d7cfa	0.15379706
156	0x3df238e6	0.11827259
157	0x3e443dd5	0.19164212
158	0x3e5d4af7	0.21610628
159	0xbe873a0f	-0.26411483
160	0xbe95c4ec	-0.29251802
161	0xbe8a9457	-0.270663
162	0x3df5a9c6	0.11995272
163	0xbe4cd8bf	-0.20004557
164	0x3e360c56	0.17778143
165	0xbe7fb425	-0.24971063
166	0xbe54d86c	-0.20785683
167	0x3ea4f20c	0.32215917
168	0x3e31ff1c	0.17382473
169	0xbe6485ab	-0.22316615
170	0x3e510f18	0.20415914
171	0xbd01bcc3	-0.031674158
172	0xbe7be0de	-0.24597499
173	0x3e77d3b6	0.24201855
174	0xbcfe8254	-0.031068005
175	0xbd14720c	-0.036241576
176	0xbe8d7ec2	-0.2763577
177	0xbe6f162a	-0.23348299
178	0x3e5b05f8	0.21388996
179	0x3e15c83d	0.14627166
180	0xbe996790	-0.29961824
181	0xbd9c02d0	-0.07617724
182	0xbddb4dde	-0.10708211
183	0xbdbab1f0	-0.0911597
184	0x3e36f155	0.17865498
185	0xbe67c190	-0.22632432
186	0xbe8a7b36	-0.27047127
187	0x3e2da787	0.16958438
188	0x3e8012f0	0.25014448
189	0x3e19d20d	0.15021534
190	0x3e53972f	0.2066314
191	0x3e8176b8	0.25285888
192	0xbd229b2e	-0.039698772
193	0x3e28cff9	0.16485585
194	0x3e323cf8	0.1740607
195	0x3de66793	0.11250224
196	0x3e48a1fc	0.19593042
197	0xbe87b1fb	-0.26502976
198	0xbe70de03	-0.23522191
199	0xbe2caa1f	-0.16861771
200	0x3ce56d19	0.028006123
201	0x3e80e299	0.2517288
202	0xbe200908	-0.15628445
203	0x3d4c1d5a	0.04983268
204	0x3e2c86ca	0.16848293
205	0xbcffdd65	-0.031233499
206	0x3e8b275c	0.27178466
207	0xbabff79c	-0.0014645937
208	0x3e144b4b	0.14481847
209	0x3ce3a439	0.027788268
210	0x3dd49a64	0.1038101
211	0xbe2b1f19	-0.16711082
212	0x3d587615	0.052846987
213	0x3e1672b3	0.14692192
214	0x3cebd4e6	0.028788041
215	0x3a47d4ff	0.00076229864
216	0xbcb85fa7	-0.022506548
217	0xbcf58c94	-0.02997426
218	0xbe843873	-0.25824317
219	0xbc814621	-0.01578051
220	0x3dd19a47	0.10234504
221	0x3e583848	0.2111522
222	0xbe011f5e	-0.12609622
223	0xbdbf5656	-0.09342639
224	0x3d89b941	0.067247875
225	0x3e82ff83	0.25585565
226	0xbd8ec8a2	-0.069718614
227	0x3dcd55e0	0.10026145
228	0xbe823b53	-0.25435886
229	0xbd8237d2	-0.06358303
230	0xbd1d424e	-0.03839331
231	0x3e818965	0.25300136
232	0x3eabdfbd	0.33569136
233	0x3a7d17ea	0.00096547476
234	0xbd165ba6	-0.036708497
235	0xbe90285b	-0.2815579
236	0x3e88a855	0.26690927
237	0x3e8dd453	0.27701053
238	0x3e5e504e	0.21710321
239	0x3e01db1a	0.12681237
240	0xbe89e454	-0.26932013
241	0x3d6c7aaa	0.05773417
242	0xbe1319a3	-0.14365248
243	0x3d84dcfc	0.06487462
244	0x3e86c54f	0.2632241
245	0x3e8baa29	0.2727826
246	0xbe3bd516	-0.18343005
247	0x3e726e96	0.23674998
248	0xbd8c3b8c	-0.06847295
249	0x3ddf74b3	0.109109305
250	0xbe0c1870	-0.13681197
251	0x3e580ec5	0.21099384
252	0x3da8ab5f	0.082358114
253	0xbe313b20	-0.1730771
254	0xbe97869e	-0.29594892
255	0x3e8c162b	0.27360663

linear1.bias f4 [256]
0	0xbdbdd828	-0.09269744
1	0xbe39d46f	-0.18147443
2	0x3d81c08c	0.063355535
3	0xbe5dd7d3	-0.21664362
4	0xbe39e838	-0.1815499
5	0xbe98332e	-0.29726547
6	0x3e8290fd	0.25501242
7	0xbd7fbde9	-0.06243697
8	0x3e427839	0.18991174
9	0x3e31a671	0.17348649
10	0x3e816d6e	0.252788
11	0x3e6cbd50	0.23119092
12	0xbe199001	-0.1499634
13	0x3de196cc	0.1101509
14	0xbdc2e689	-0.09516627
15	0xbd81b440	-0.06333208
16	0xbe822d12	-0.2542501
17	0xbce176fb	-0.027522555
18	0xbe9c1330	-0.3048339
19	0xbd80968b	-0.06278714
20	0xbccc7d32	-0.024962042
21	0x3e5ed89c	0.21762317
22	0xbea9f2a7	-0.33192942
23	0xbe30edf6	-0.17278275
24	0x3da10175	0.07861606
25	0x3e74fd09	0.2392465
26	0x3e082edc	0.13299125
27	0xbdece8bd	-0.11567829
28	0xbdc9f6d0	-0.09861529
29	0x3e3787d6	0.17922911
30	0x3d8a3512	0.067484036
31	0xbdc5d16d	-0.096590854
32	0x3e57b595	0.21065362
33	0x3dab341a	0.08359547
34	0x3e24a77e	0.16079518
35	0xbddc3d1e	-0.10753845
36	0x3e8531c8	0.26014543
37	0x3e976794	0.2957121
38	0x3e2068f4	0.15665036
39	0xbe05efa4	-0.13079697
40	0x3dfbe4ec	0.12299523
41	0x3e29ca46	0.16581067
42	0xbe732c58	-0.23747385
43	0xbe5ecaba	-0.21757022
44	0xbe7461d6	-0.23865446
45	0x3e4ec592	0.20192555
46	0x3de5c8cb	0.11219939
47	0x3e745f04	0.2386437
48	0xbe9da266	-0.30787963
49	0x3e60e999	0.2196411
50	0x3d08beca	0.033385076
51	0xbe27b8fe	-0.16379163
52	0xbea03a2d	-0.31294385
53	0x3e8ba800	0.2727661
54	0xbd9a0ae0	-0.075216055
55	0xbe8af8fa	-0.2714308
56	0x3e5b69a2	0.21427014
57	0x3db239ea	0.087024525
58	0x3ddceee8	0.10787755
59	0xbe7ce44f	-0.24696468
60	0xbd15b0e5	-0.036545653
61	0x3d998c23	0.07497432
62	0xbe5a8971	-0.21341492
63	0x3e67aa0a	0.22623459
64	0xbcb109ff	-0.021611212
65	0xbe921892	-0.2853437
66	0xbd3b9c30	-0.04580325
67	0xbe81b3fc	-0.2533263
68	0xbdadbb1f	-0.08482956
69	0xbe121c64	-0.14268643
70	0xbdeb5b67	-0.11492043
71	0x3e9b62ad	0.3034872
72	0x3e5dae33	0.21648483
73	0xbe966231	-0.2937179
74	0x3d8e1b66	0.069388196
75	0xbd8b61c2	-0.06805755
76	0x3e6c0536	0.23048863
77	0x3df0609a	0.11737175
78	0x3e22ec60	0.15910482
79	0x3e4667c9	0.19375528
80	0x3e0a7501	0.13521196
81	0x3e784c0d	0.24247761
82	0xbde2877d	-0.110609986
83	0x3dd5446d	0.10413442
84	0xbe021599	-0.12703551
85	0x3e920093	0.28516063
86	0x3dc783de	0.097419485
87	0xbe8ffb40	-0.28121376
88	0x3d9068ea	0.07051261
89	0xbe06778a	-0.13131538
90	0xbe19cd47	-0.15019713
91	0x3e4d29e3	0.2003551
92	0x3c8deb0e	0.017323997
93	0x3dfc115d	0.12307999
94	0x3e89cdac	0.26914728
95	0xbe8a4be4	-0.27011025
96	0xbe94b45c	-0.29043853
97	0x3e287387	0.1645032
98	0x3ba712da	0.005098683
99	0xbe5a975a	-0.21346799
100	0x3e500a54	0.2031644
101	0x3e82fb9b	0.25582585
102	0xbe51c3f0	-0.204849
103	0x3e614189	0.21997656
104	0xbe877ab4	-0.26460803
105	0x3e3a1943	0.18173699
106	0x3dd08633	0.101818465
107	0xbe96b0b2	-0.29431683
108	0x3d0c2421	0.034214143
109	0x3e0e5e94	0.13903266
110	0xbdc0cb24	-0.09413746
111	0xbe4bdd44	-0.19908625
112	0xbd5eb3e6	-0.054370783
113	0x3e8fddb2	0.28098828
114	0x3e1a4348	0.15064728
115	0x3ce67e1a	0.028136302
116	0x3e6edc75	0.23326285
117	0xbe228471	-0.15870835
118	0xbe2570de	-0.16156337
119	0x3ddecc40	0.10878801
120	0x3e47164f	0.19442104
121	0x3cd23c74	0.025663592
122	0xbce9e2f9	-0.028550612
123	0x3d9f2c68	0.07772142
124	0x3e05ce1d	0.13066907
125	0xbe09bea2	-0.13451627
126	0x3e771f67	0.24133073
127	0xbe792a42	-0.24332526
128	0xbe4b55b7	-0.19856916
129	0x3e1fecd3	0.15617685
130	0x3e888476	0.2666356
131	0xbe3ecdbc	-0.18633169
132	0xbe6e3a20	-0.2326436
133	0x3e0a7f68	0.13525164
134	0xbe8510aa	-0.25989276
135	0xbe5aaa2e	-0.21353981
136	0x3e36044d	0.17775078
137	0xbe6ef281	-0.23334695
138	0xbe8f4a74	-0.2798649
139	0xbe2f5879	-0.17123593
140	0x3d9ac923	0.07557895
141	0x3ea5693d	0.32306853
142	0xbe3fd6a7	-0.18734227
143	0xbe732f74	-0.2374857
144	0x3db7dcf8	0.08977693
145	0xbe72efc6	-0.23724279
146	0xbe61e9e8	-0.22061884
147	0x3eab4601	0.33451846
148	0xbdf7a7c6	-0.12092547
149	0xbd9491c2	-0.072543636
150	0x3e8ddba5	0.27706638
151	0x3e1cf43c	0.15327543
152	0x3e38f4d5	0.18062146
153	0x3e8d1c66	0.2756073
154	0xbe8f9862	-0.28045946
155	0xbd6f3d60	-0.05840814
156	0x3e8ea9ce	0.27863926
157	0x3e1a0436	0.15040669
158	0xbd704bf3	-0.05866618
159	0xbe55f609	-0.20894636
160	0x3e807c82	0.25094992
161	0x3da9534c	0.08267841
162	0x3eaefe10	0.3417821
163	0xbba8f796	-0.0051564677
164	0xbdef5983	-0.11686995
165	0x3e73ab17	0.23795734
166	0x3e741617	0.23836552
167	0xbd97cb51	-0.074118264
168	0x3d143a0f	0.03618818
169	0x3e3aa8d7	0.1822847
170	0x3e55f3b7	0.20893751
171	0xbd74ba65	-0.059748072
172	0x3e2ad053	0.16681032
173	0xbdc300f6	-0.09521668
174	0xbe3cdc61	-0.18443443
175	0xbe9de482	-0.308384
176	0xbdc08c0a	-0.0940171
177	0x3eb24545	0.34818473
178	0xbc41348f	-0.011792316
179	0x3e4fcc2e	0.20292732
180	0xbe610f38	-0.21978462
181	0xbdde3e1c	-0.1085169
182	0x3e6a2132	0.22864226
183	0x3e04e310	0.12977242
184	0xbe4dbb2c	-0.20090932
185	0x3e7016e0	0.23446226
186	0x3db7d2dc	0.08975765
187	0xbe525d59	-0.20543422
188	0xbde7ce4a	-0.113186434
189	0xbad096de	-0.0015914103
190	0xbda96373	-0.082709216
191	0x3e5fc373	0.21851902
192	0x3e719559	0.23592128
193	0x3d40fbd3	0.04711516
194	0xbda694e1	-0.08133865
195	0xbe47a157	-0.1949514
196	0x3d24bd1c	0.04021941
197	0x3e50fe54	0.20409518
198	0xbe6aff3f	-0.22948931
199	0xbe9e5285	-0.30922332
200	0x3e939ea3	0.28831968
201	0xbe5e01a3	-0.21680312
202	0x3e3d886a	0.18509069
203	0x3e033d56	0.12816367
204	0xbe72028f	-0.23633789
205	0x3e0c3a8f	0.13694213
206	0x3d87fdc3	0.06640198
207	0xbc46307e	-0.012096522
208	0xbe3117b4	-0.17294198
209	0xbe4da8d4	-0.20083934
210	0xbb24c818	-0.002514368
211	0x3d14b5b4	0.036306098
212	0x3d74cb6a	0.059764303
213	0xbd473dc9	-0.048642907
214	0x3e27a562	0.16371682
215	0x3e8455a8	0.258466
216	0x3e08f3cf	0.13374256
217	0x3dce9cca	0.10088499
218	0x3e200055	0.15625127
219	0x3e3e8982	0.18607143
220	0x3e4889ce	0.19583818
221	0xbe0cf644	-0.13765818
222	0xbe4fd4d3	-0.2029603
223	0x3e48d77c	0.19613451
224	0xbc9e4bc7	-0.019323243
225	0x3e3c4482	0.18385509
226	0xbe5547f5	-0.2082823
227	0x3e7e84c8	0.2485534
228	0xbe19dc65	-0.1502548
229	0x3e335422	0.17512563
230	0xbd3162f0	-0.043307245
231	0xbe49f0ff	-0.19720839
232	0x3da3d709	0.07999999
233	0x3e194722	0.14968541
234	0xbe79ad3a	-0.24382487
235	0xbda3babf	-0.07994603
236	0x3c0a6562	0.008447023
237	0x3c7f00a3	0.015564117
238	0x3e16e7d3	0.14736871
239	0x3e75657a	0.23964491
240	0x3d61e640	0.055151224
241	0xbd8cc209	-0.06872947
242	0x3e297f14	0.16552383
243	0xbe9ac550	-0.30228662
244	0x3e95bf09	0.2924731
245	0x3cf45338	0.029824838
246	0xbe01ac0a	-0.12663284
247	0x3e942c1e	0.2893991
248	0x3df22152	0.118227616
249	0xbd3b6b8a	-0.045756854
250	0xbce88d16	-0.028387588
251	0xbe4a675a	-0.19765988
252	0xbe2b5c86	-0.16734514
253	0x3db633b3	0.088965796
254	0x3e689a86	0.22715196
255	0x3e813766	0.25237578

linear2.weight f4 [3, 256]
0	0x3d49b4ba	0.04924462
1	0xbdb34351	-0.08753074
2	0xbd197683	-0.037466537
3	0x3c0a025e	0.008423416
4	0xbd3c8986	-0.04602959
5	0xbc9db2f4	-0.01925037
6	0xbd536291	-0.051607672
7	0xbd4af1e2	-0.049547084
8	0xbc4b1039	-0.0123940045
9	0xbd1cc9c5	-0.03827836
10	0x3c8fb4e8	0.017542318
11	0xbd815a12	-0.06316008
12	0xbd295b7f	-0.041347023
13	0xbda35c99	-0.07976646
14	0x3d72eb73	0.059306573
15	0x3cdc279c	0.026874356
16	0xbc750783	-0.014955404
17	0xbd4783f7	-0.048709836
18	0x3d212f68	0.03935185
19	0x3b519bbb	0.0031983692
20	0xbd5322f5	-0.05154701
21	0xbd9ef470	-0.077614665
22	0x3d800081	0.06250096
23	0x3d081b9a	0.033229448
24	0xbd659c39	-0.05605719
25	0xbd941c71	-0.07231987
26	0x3c12f0f8	0.008968584
27	0xbd057622	-0.032583363
28	0xbd145d58	-0.036221832
29	0x3ccbe3d8	0.024888918
30	0xbd13626d	-0.035982538
31	0xbc183213	-0.009289282
32	0xbd7e662d	-0.06210916
33	0xbd260908	-0.040535957
34	0x3bf2d6bc	0.0074108522
35	0x3c5653e1	0.013081522
36	0xbc262e0e	-0.010142816
37	0xbd1d75aa	-0.03844229
38	0x3cc01e98	0.023452088
39	0x3da10060	0.078614
40	0xbd9d709f	-0.076874964
41	0xbd1a8985	-0.037728805
42	0x3ce3afa7	0.027793719
43	0x3d7eef42	0.062239893
44	0xbd880452	-0.06641449
45	0xbce38b73	-0.027776456
46	0xbd6e421f	-0.058168527
47	0x3c87a852	0.016559754
48	0x3d0aa47e	0.03384828
49	0x3cb57dd8	0.022154734
50	0xbca4f012	-0.020134006
51	0xbd62c575	-0.05536409
52	0x3d2e4442	0.042545564
53	0xbd8007d5	-0.06251494
54	0x3c3329b4	0.010935236
55	0xbbb759f0	-0.005595438
56	0xbd2c027c	-0.041994557
57	0xbb1b5c6d	-0.0023706213
58	0x3c2d6973	0.010584223
59	0xbda20113	-0.07910361
60	0xbd3de119	-0.046357248
61	0x3d5ff430	0.054676235
62	0x3ba19d5a	0.004932088
63	0xbcd16e67	-0.02556534
64	0xbd99e45e	-0.07514261
65	0xbd4668f0	-0.04843992
66	0x3c3d0eae	0.011539144
67	0xbc39de4e	-0.0113445055
68	0xbd449273	-0.047991227
69	0x3ca697d9	0.020336078
70	0x3d0aa271	0.033846322
71	0x3c40eea2	0.0117756445
72	0xbd6b1b7c	-0.057399258
73	0xbc795035	-0.015216877
74	0x3b14af37	0.0022687444
75	0xbcb5ec0b	-0.02220728
76	0xbdba5cb4	-0.09099713
77	0x3d0d899c	0.034555063
78	0x3c4e9d22	0.012610706
79	0xbd41a4ca	-0.047276296
80	0x3d002d1c	0.03129302
81	0xbad05e90	-0.0015897322
82	0xbb9c349c	-0.0047670137
83	0xbcf7f300	-0.030267239
84	0x3d111006	0.03541567
85	0xbd8dc96e	-0.06923185
86	0xbd305aef	-0.04305547
87	0xbbd07350	-0.0063614026
88	0xbd1a3c3e	-0.037655108
89	0x3bea297d	0.007146059
90	0x3c8e8182	0.017395739
91	0xbd09d98f	-0.033654746
92	0x3b76cc5f	0.0037658436
93	0x3cce4a75	0.025181988
94	0x3d57502d	0.052566696
95	0xbd31d050	-0.043411553
96	0xbd23adc4	-0.039960638
97	0xbb0e3bcb	-0.002170312
98	0xbd19aff1	-0.037521306
99	0xbd354302	-0.044253357
100	0x3ce5626a	0.028001029
101	0xbb28e8de	-0.0025773565
102	0xbc94e997	-0.01817779
103	0xbd996b85	-0.07491211
104	0x3d8ab413	0.06772628
105	0xbdc39145	-0.09549192
106	0xbd7fe633	-0.062475394
107	0x3d24a8c1	0.0402
108	0xbd2e06c0	-0.042486906
109	0xbbed3a2e	-0.0072396016
110	0x3cfaa891	0.030597957
111	0x3d24b960	0.04021585
112	0x3dae98b2	0.08525218
113	0xbd25daa5	-0.04049172
114	0xbd878361	-0.066168554
115	0x399605d9	0.00028614586
116	0xbd7b01fe	-0.061281197
117	0x3c2f430b	0.010697137
118	0x3c0ae4ac	0.008477371
119	0xbc8d4270	-0.017243594
120	0xbd9dd71a	-0.07707043
121	0x3d23457e	0.039861195
122	0x3c36620a	0.011131773
123	0xbbfb5f5b	-0.0076712794
124	0xbd8154ef	-0.06315028
125	0xbba8ffab	-0.005157431
126	0x3ce77083	0.028251892
127	0xbc8e8f36	-0.017402273
128	0xbb138f84	-0.0022515962
129	0x3c5e173d	0.013555345
130	0xbd9631e6	-0.07333736
131	0xbc68fa9e	-0.014219908
132	0xbd0eaf1d	-0.03483497
133	0xbca67fc5	-0.020324597
134	0xbd55bdc2	-0.05218292
135	0xbd2f6b30	-0.04282683
136	0x3cae1582	0.02125049
137	0xbd4cf540	-0.050038576
138	0xbb66cf00	-0.0035218596
139	0x3d6d25b0	0.05789727
140	0xbdac3d49	-0.08410127
141	0xbdd2407c	-0.10266206
142	0x3d931da4	0.07183388
143	0xbc8e1788	-0.017345205
144	0xbd39ef69	-0.045394335
145	0x3d25dcac	0.040493652
146	0x3d8fd4d5	0.07023016
147	0xbda46fd7	-0.08029144
148	0xbd8d0067	-0.06884842
149	0xbd43dfa1	-0.04782069
150	0xbc5a14f2	-0.013310658
151	0xbd82239e	-0.0635445
152	0xbd178434	-0.036991313
153	0xbdb70386	-0.08936219
154	0x3d1c603e	0.03817772
155	0xbd433149	-0.047654424
156	0xbd67d0d3	-0.056595635
157	0xbb4ac4cf	-0.003094006
158	0xbd072307	-0.03299239
159	0xbc01f1ea	-0.007931212
160	0xbd89f4fb	-0.067361794
161	0x3c2dfb08	0.010618933
162	0xbd88017d	-0.06640909
163	0xbcd8209e	-0.02638274
164	0xbd88d4a5	-0.06681184
165	0xbd14753c	-0.036244616
166	0xbd94f78b	-0.072737776
167	0xbd5cd827	-0.053917076
168	0x3d32dab3	0.0436656
169	0x3d761288	0.060076267
170	0xbdbb1178	-0.09134191
171	0xbd5cad42	-0.05387617
172	0xbd6c8bd1	-0.057750527
173	0x3d01d7f3	0.031700086
174	0x3d5c2e9d	0.05375539
175	0xbbf6d340	-0.007532507
176	0xbd92ea06	-0.07173543
177	0xbd1c5df7	-0.03817555
178	0x3cfb60a9	0.03068574
179	0xbd5cb350	-0.053881943
180	0x3b946268	0.0045283325
181	0x3c7ca934	0.015421201
182	0xbd93e294	-0.07220951
183	0xbd5095bf	-0.05092406
184	0x3d99b30f	0.07504856
185	0xbd6c9653	-0.057760548
186	0xbdac6672	-0.084179774
187	0xbc088c32	-0.008334206
188	0xbd3e5026	-0.046463154
189	0x3d18faf4	0.037348703
190	0xbdbf6e6b	-0.093472324
191	0x3d199c0e	0.03750234
192	0xbd56a438	-0.052402705
193	0xbd628d7d	-0.055310715
194	0x39b41f5b	0.00034355637
195	0xbd05a983	-0.032632362
196	0xbc8ae794	-0.016956128
197	0x3cf9dc2c	0.030500494
198	0xbd8bbadb	-0.06822749
199	0x3c9deb67	0.019277288
200	0x3b1a7e41	0.0023573788
201	0xbc892e41	-0.016745688
202	0xbd9488ca	-0.07252653
203	0xbcc1cf3b	-0.023658386
204	0xbd316e71	-0.043318216
205	0xbd9db8ba	-0.077012494
206	0xbaa0e5a2	-0.0012275467
207	0xbd0cfa1d	-0.034418214
208	0x3a897dea	0.0010489796
209	0xbccd810c	-0.025085948
210	0xbd791a9d	-0.060816396
211	0xbc07d51c	-0.008290555
212	0x3b200e2c	0.002442251
213	0x3be07c8d	0.006850785
214	0xbcc05ec5	-0.02348269
215	0xbd938907	-0.0720387
216	0xbcd325b1	-0.025774809
217	0xbc02cd9f	-0.007983594
218	0xbd042afb	-0.032267552
219	0x3c0b0bfa	0.008486742
220	0xbd74f6c2	-0.05980564
221	0xbd9b568a	-0.075848654
222	0x3c8fd320	0.017556727
223	0x3b8d2cef	0.004308335
224	0xbd97dbf1	-0.07414997
225	0x3dadaa30	0.08479726
226	0x3d03e113	0.03219707
227	0xbc634be7	-0.013873077
228	0xbda268bc	-0.07930133
229	0xbd9faaf2	-0.07796277
230	0x3c8d03af	0.01721367
231	0xbd99c1a5	-0.07507638
232	0xbd5b6065	-0.053558726
233	0x3d15c5a6	0.036565445
234	0xbbd98b3c	-0.0066389125
235	0x3c4c71cb	0.012478302
236	0x3ce2451a	0.02762084
237	0xbda24ca5	-0.07924775
238	0xbd44fa73	-0.04809041
239	0xbda74ba7	-0.081687264
240	0xbcb97833	-0.022640323
241	0x3c93a957	0.018025083
242	0xbd192c81	-0.037395958
243	0xbbf1cf42	-0.0073794434
244	0xbd9d13f2	-0.0766982
245	0xbc8bdddd	-0.017073566
246	0x3d561927	0.05227008
247	0xbd767a45	-0.0601752
248	0xbc4287bf	-0.011873185
249	0x3be6bf91	0.0070418795
250	0xbd72de86	-0.059294246
251	0x3d1bc65a	0.03803096
252	0xbb953e30	-0.0045545325
253	0xbda91378	-0.082556665
254	0xbc4132fd	-0.011791942
255	0xbda14d7a	-0.078761056

linear2.bias f4 [3]
0	0xbd32309b	-0.043503385
1	0xbcf85867	-0.030315591
2	0xbd90bcbf	-0.070672505
