model/mode.pth (torch, 16781 bytes, 4 tensors)

linear1.weight f4 [256, 11]
0	0x3e476ff4	0.194763
1	0x3e9a61f1	0.30152848
2	0x3e88f76a	0.26751262
3	0x3e3a22f5	0.18177398
4	0x3d0e32d0	0.034716427
5	0x3c98e269	0.018662648
6	0x3d5a11c5	0.053239603
7	0xbc3b9ed2	-0.01145144
8	0x3e826f87	0.25475714
9	0xbdc3d4a7	-0.095620446
10	0xbd8672c7	-0.06564861
11	0x3d09f082	0.03367663
12	0x3d2cfeb1	0.04223508
13	0x3d543f62	0.05181826
14	0x3db6d26f	0.08926856
15	0xbc3606ec	-0.011110049
16	0x3e876b29	0.26448944
17	0xbd9c9d4d	-0.0764719
18	0xbd08a458	-0.033359855
19	0xba17dfd9	-0.0005793549
20	0x3e83ed60	0.2576704
21	0x3e566e35	0.20940478
22	0x3ea3de1c	0.32005394
23	0x3d5d7b50	0.054072678
24	0xbe45278c	-0.19253367
25	0xbdc64a3c	-0.09682128
26	0xbe67cce1	-0.22636749
27	0xbe4cb9e5	-0.19992788
28	0x3e2eda77	0.17075525
29	0xbe7b1bf1	-0.24522378
30	0xbe74feb9	-0.23925294
31	0x3d877f09	0.06616027
32	0xbe8b1762	-0.27166277
33	0xbe9fa5fc	-0.31181324
34	0xbe1a02d7	-0.15040146
35	0x3e132ea0	0.14373255
36	0x3e15a4af	0.14613603
37	0xbe91eb68	-0.28499913
38	0xbe7ed5b9	-0.24886216
39	0xbe406f2b	-0.18792407
40	0x3cbbf75a	0.022945095
41	0x3ba40fed	0.0050067813
42	0x3d8beead	0.06832633
43	0xbcfdd0ac	-0.030983292
44	0xbe1dbdf4	-0.15404493
45	0xbdaa3988	-0.083117545
46	0x3d4c4453	0.049869847
47	0xbd82c7ed	-0.06385789
48	0x3e7d3a18	0.24729192
49	0xbdbcc28d	-0.09216795
50	0xbdbc72f8	-0.09201616
51	0xbe280ca0	-0.16411066
52	0xbea52ebb	-0.32262215
53	0xbd201bfe	-0.039089195
54	0x3e2afd6e	0.16698238
55	0x3d3328dc	0.04374014
56	0x3e8995d5	0.26872125
57	0xbe0ea895	-0.13931496
58	0x3e05b707	0.130581
59	0xbe67b669	-0.22628178
60	0x3b521555	0.0032056172
61	0xbe27ef63	-0.16399913
62	0xbe68acb8	-0.22722137
63	0xbe22af0a	-0.15887085
64	0xbe7d45a2	-0.24733594
65	0x3e001576	0.12508187
66	0xbe104aa5	-0.14090975
67	0x3e0dbae6	0.13840827
68	0xbc8c804f	-0.017151026
69	0x3a0f2c6f	0.0005461638
70	0xbe1e4bae	-0.15458557
71	0xbe91c1e9	-0.28468254
72	0xbdc2664d	-0.094921686
73	0xbdb679ff	-0.08909988
74	0x3e567a32	0.20945051
75	0x3e668e0a	0.22515121
76	0x3e079116	0.1323894
77	0xbcd94674	-0.026522852
78	0x3d2e01e5	0.042482276
79	0x3e7aead0	0.24503636
80	0xbe32008f	-0.17383026
81	0xbcb6ba30	-0.022305578
82	0x3e8545c6	0.26029795
83	0xbdfd979c	-0.12382433
84	0xbce63167	-0.028099729
85	0x3d7ed335	0.06221314
86	0x3df77a4b	0.120838724
87	0xbe303679	-0.1720828
88	0xbd8ca79e	-0.06867908
89	0xbe52eb22	-0.20597509
90	0xbbb4d6d7	-0.005518775
91	0xbd8e1703	-0.06937983
92	0x3e420bf2	0.1894987
93	0x3e3373de	0.17524669
94	0x3bc246e7	0.0059288624
95	0x3e8833fb	0.26602158
96	0x3e7dfdd1	0.24803855
97	0xbe76a5f2	-0.2408674
98	0x3e14f8c2	0.14548019
99	0xbe92015f	-0.2851667
100	0xbe5f1a1e	-0.21787307
101	0x3e8711ab	0.26380667
102	0xbe81833c	-0.25295436
103	0x3e90dfe5	0.28295818
104	0x3e3ea543	0.1861773
105	0x3dd9536b	0.10611614
106	0xbe4c9bc6	-0.19981298
107	0x3e3bc777	0.18337809
108	0xbe85c88b	-0.26129565
109	0xbe186f35	-0.14886172
110	0x3cbea08c	0.023269914
111	0xbe0add1a	-0.13560906
112	0xbe33f004	-0.17572027
113	0xbea11161	-0.31458572
114	0xbe9c5c36	-0.305391
115	0xbc869f02	-0.016433243
116	0x3e449b02	0.19199756
117	0xbeab0155	-0.33399454
118	0xbe8bf860	-0.27337933
119	0x3e2f1871	0.17099167
120	0xbd9ae5e2	-0.07563378
121	0xbe8f18ee	-0.27948707
122	0xbea9091d	-0.33014765
123	0x3e9258a2	0.28583246
124	0x3e3cad8e	0.18425581
125	0x3e32c56a	0.1745812
126	0x3d0f7ac2	0.03502918
127	0x3e0d4735	0.13796695
128	0x3e1dc651	0.15407683
129	0xbe528d20	-0.20561647
130	0x3e4d5207	0.20050822
131	0x3d47da7e	0.048792355
132	0xbe0e2f45	-0.1388522
133	0x3e5e00b5	0.21679957
134	0xbd225e5d	-0.039640773
135	0x3e31383c	0.17306608
136	0xbe9a1179	-0.30091456
137	0xbe3967cb	-0.18106
138	0xbdef2f47	-0.11678939
139	0x3dfc2436	0.12311594
140	0xbe7224bb	-0.23646824
141	0x3c956d24	0.018240519
142	0xbdef4036	-0.11682169
143	0x3e080834	0.13284379
144	0x3dcec360	0.100958586
145	0xbe6ebe2e	-0.23314735
146	0xbcb38370	-0.02191326
147	0xbe224b2c	-0.15848988
148	0xbdf52f2e	-0.119718894
149	0x3adf1900	0.0017021
150	0xbe9593eb	-0.29214415
151	0x3de3a1a4	0.11114815
152	0xbe5fec3c	-0.2186746
153	0xbd8cf1ec	-0.068820804
154	0xbe69136c	-0.22761315
155	0x3dd367a8	0.10322505
156	0x3e3221ac	0.17395657
157	0x3e25b42e	0.16182014
158	0x3d625534	0.055257037
159	0xbd6baa9d	-0.057535756
160	0xbdd13a79	-0.10216231
161	0x3cb19129	0.021675663
162	0x3e988ec0	0.2979641
163	0x3dca3ba5	0.098746575
164	0x3d51a130	0.05117911
165	0x3d50be98	0.050963014
166	0x3e808116	0.25098485
167	0x3e4f66aa	0.20254007
168	0x3ea8db0f	0.32979628
169	0x3d863f46	0.06555037
170	0x3e06928c	0.1314184
171	0x3e46f616	0.19429812
172	0xbea55d81	-0.322979
173	0xbe3a5337	-0.18195806
174	0xbe56ac1f	-0.20964096
175	0xbd966e5b	-0.073452674
176	0xbd8d59b2	-0.06901874
177	0x3e9cf155	0.30652872
178	0xbe5df79a	-0.21676484
179	0x3dd32c36	0.10311167
180	0xbdd4dd78	-0.10393804
181	0xbe26d8c0	-0.16293621
182	0x3dc75292	0.09732546
183	0xbc61ddb9	-0.013785773
184	0xbe09fdf5	-0.13475783
185	0x3e9b6171	0.3034778
186	0x3e5966f9	0.21230687
187	0x3e8f1774	0.2794758
188	0xbdbc814a	-0.092043474
189	0x3e5cc684	0.21560103
190	0xbbfca5c0	-0.0077101886
191	0x3e2c9e18	0.16857183
192	0xbdd1d9a2	-0.10246588
193	0xbe74d2d3	-0.23908548
194	0xbe4ec1c3	-0.20191102
195	0xbca3fa60	-0.020016849
196	0xbe59cee6	-0.21270332
197	0xbe3ec416	-0.18629488
198	0x3e2d480e	0.16922018
199	0xbe6d9a67	-0.23203431
200	0xbe9b7bd1	-0.30367902
201	0x3ca13cb5	0.019682268
202	0x3e7047d8	0.23464906
203	0xbc0b6c4a	-0.008509705
204	0xbb3d94dd	-0.002892784
205	0xbe4057bb	-0.18783467
206	0xbe30c2dc	-0.17261833
207	0x3e8d6cc5	0.27622047
208	0x3e1b253a	0.1515092
209	0x3e85c0d7	0.26123688
210	0x3e6c4133	0.23071747
211	0x3de0f280	0.10983753
212	0x3c1d4e07	0.009601123
213	0xbe76151f	-0.24031495
214	0xbe911c0e	-0.28341717
215	0xbdc7c903	-0.09755137
216	0xbe86a488	-0.26297402
217	0x3e83348f	0.25626037
218	0xbddbb8ab	-0.10728582
219	0x3d3bddb8	0.045865744
220	0x3e8c00b6	0.27344292
221	0x3dfa40ab	0.12219366
222	0xbe8dab1d	-0.27669612
223	0x3e62e6db	0.22158377
224	0x3e4e5855	0.20150883
225	0xbe4df576	-0.20113167
226	0x3d1822e2	0.03714264
227	0x3e7de7d5	0.24795468
228	0xbe867906	-0.2626421
229	0xbe88ea91	-0.2674146
230	0x3e84cdfd	0.25938407
231	0x3df1701b	0.117889605
232	0xbba14180	-0.0049211383
233	0x3da67618	0.08127993
234	0xbda0fe31	-0.07860983
235	0xbe5aad2c	-0.21355122
236	0x3d6ad792	0.05733449
237	0xbe39a1ea	-0.18128172
238	0xbe3b669e	-0.18300864
239	0x3e05732a	0.13032213
240	0x3e8a2f80	0.26989365
241	0x3e00be1d	0.12572522
242	0x3e2f3779	0.17111005
243	0xbe3060ea	-0.1722447
244	0xbd075ba1	-0.03304637
245	0x3ea5dc17	0.32394478
246	0x3e7e9779	0.2486247
247	0xbe830497	-0.2558944
248	0x3e1b6288	0.15174305
249	0x3d62a0ea	0.05532924
250	0xbd25ef94	-0.040511683
251	0x3e590700	0.21194077
252	0x3dc19eaf	0.094540946
253	0x3caa420e	0.02078345
254	0xbd8710fc	-0.065950364
255	0x3e2cc5e4	0.16872364

linear1.bias f4 [256]
0	0x3e27a8f5	0.16373046
1	0xbe103aec	-0.14084977
2	0x3dc11f37	0.09429782
3	0x3e041577	0.12898813
4	0x3e6b67a3	0.22988753
5	0x3e84c42f	0.25930926
6	0xbe6d3632	-0.23165205
7	0xbe1057a8	-0.14095938
8	0x3db6082d	0.08888278
9	0xbe3248ae	-0.17410538
10	0x3e58658e	0.2113249
11	0xbcfb386f	-0.030666558
12	0xbb25a524	-0.0025275433
13	0xbe4336ec	-0.1906392
14	0x3a895903	0.0010478798
15	0x3d84169e	0.064496264
16	0xbd704915	-0.058663446
17	0xbe83a710	-0.25713396
18	0x3e38445e	0.1799483
19	0x3e389b46	0.18027982
20	0x3db3f078	0.087861
21	0xbe73c6fd	-0.23806377
22	0x3eadaa5d	0.3391904
23	0x3e1c1265	0.15241392
24	0x3e49c76d	0.19704981
25	0x3eae1f16	0.34008092
26	0x3d7af54f	0.0612691
27	0x3eb9a319	0.36257246
28	0x3de27acd	0.11058579
29	0xbe8e887a	-0.27838498
30	0x3e7f88fa	0.24954596
31	0xbe0e009a	-0.13867417
32	0xbc137fbf	-0.009002625
33	0x3c31bd59	0.010848367
34	0x3e9bf6e2	0.30461794
35	0xbe25ada4	-0.1617952
36	0x3e174ae6	0.14774665
37	0x3da39b85	0.07988647
38	0x3ea37d2c	0.31931436
39	0x3d2ddb2c	0.042445347
40	0x3db9fc1e	0.09081291
41	0xbc8f2c07	-0.017477049
42	0x3e9580ab	0.29199728
43	0xbdf1fd49	-0.118158884
44	0xbe5ce27a	-0.21570769
45	0xbe4379ea	-0.19089475
46	0x3e8a20c2	0.26978117
47	0xbc72826d	-0.014801604
48	0xbe806677	-0.25078174
49	0xbd980196	-0.074221775
50	0x3e34dbe8	0.17662013
51	0xbd7b57cd	-0.06136303
52	0x3c55ddde	0.013053386
53	0x3db1f710	0.086897016
54	0xbd3b342f	-0.045704063
55	0x3ea53005	0.32263198
56	0xbd310c63	-0.043224704
57	0xbe71b251	-0.23603179
58	0x3e44f950	0.1923573
59	0x3e3bda53	0.18345003
60	0xbd94c1e4	-0.07263544
61	0x3d793e92	0.060850687
62	0xbe79d67d	-0.24398227
63	0x3c66dfdd	0.014091459
64	0xbe8c2749	-0.27373722
65	0x3e61bf02	0.2204552
66	0x3e1a9e24	0.15099388
67	0x3d70b31b	0.05876456
68	0x3dcdf1f3	0.10055914
69	0xbe3f9aea	-0.18711439
70	0x3e4fb97c	0.202856
71	0x3e89566f	0.26823756
72	0x3e88b2c8	0.266989
73	0xbda5d89e	-0.08097957
74	0xbe02efc1	-0.12786771
75	0x3e68c0f8	0.22729862
76	0xbd3cd8a6	-0.04610505
77	0x3dc39e15	0.09551636
78	0x3da9f866	0.08299331
79	0x3e850a7f	0.2598457
80	0xbe4057a8	-0.18783438
81	0x3e7e3d4a	0.24828067
82	0x3e9d5d6c	0.30735338
83	0xbdac6e18	-0.08419436
84	0x3e525e64	0.2054382
85	0x3dafb571	0.08579529
86	0x3d9ea190	0.07745659
87	0xbd48b3f4	-0.04899974
88	0xbd1190a7	-0.03553834
89	0x3e3a29c1	0.1817999
90	0x3df5f4a7	0.12009554
91	0x3e2d3726	0.16915569
92	0x3cbd04b8	0.02307354
93	0xbdf18c90	-0.11794388
94	0xbe00a9e5	-0.1256481
95	0xbe7dbd4b	-0.24779241
96	0xbdb1cca5	-0.08681611
97	0x3e95d63d	0.29265013
98	0x3d59f77c	0.053214535
99	0x3e568014	0.20947295
100	0x3de12efa	0.10995288
101	0x3dccaadd	0.09993527
102	0xbe57b27a	-0.21064177
103	0x3e5a35fc	0.21309656
104	0xbc361b83	-0.011114958
105	0xbe318e1f	-0.17339371
106	0x3d9ae8f8	0.075639665
107	0xbe0688a2	-0.13138059
108	0x3d2e48f9	0.04255006
109	0xbda5885a	-0.080826476
110	0x3df4b2c5	0.1194816
111	0xbe399912	-0.18124798
112	0xbe8a5fb4	-0.2702614
113	0x3e5b844f	0.2143719
114	0xbc12de15	-0.008964081
115	0x3c7da86e	0.015482051
116	0xbe370a8c	-0.17875117
117	0xbe8cdc92	-0.27512032
118	0xbe0d8293	-0.13819341
119	0x3dbbf0ba	0.09176774
120	0x3e8fc43b	0.280794
121	0x3e556689	0.20839895
122	0x3e376a0b	0.17911546
123	0x3d121cd6	0.03567203
124	0xbd7c327c	-0.061571583
125	0x3dda5c99	0.10662193
126	0x3e772b22	0.24137548
127	0xbe8cc5eb	-0.2749475
128	0xbd70fade	-0.058832996
129	0xbd9c6865	-0.07637099
130	0xbd9a6f73	-0.075407885
131	0x3da46d86	0.080287024
132	0xbcc67da2	-0.024229828
133	0x3d3a5a80	0.045496464
134	0xbdc41048	-0.09573418
135	0xbe0901db	-0.13379614
136	0xbe778a48	-0.24173844
137	0xbe9248af	-0.28571078
138	0xbd8f5447	-0.069984965
139	0xbe3f1d8a	-0.18663612
140	0x3eb14336	0.3462159
141	0xbe4897fd	-0.19589229
142	0x3d60d655	0.054891903
143	0x3e8a9ace	0.27071232
144	0xbcf52e21	-0.029929223
145	0xbe834d79	-0.25645044
146	0x3dbadc4e	0.09124051
147	0x3db4d78e	0.08830176
148	0xbe27b6c0	-0.16378307
149	0xbe7827e2	-0.24233964
150	0x3ea81320	0.3282709
151	0xbd960af1	-0.07326306
152	0xbe559f7f	-0.20861624
153	0xbd4754b8	-0.04866478
154	0xbe50f8c6	-0.204074
155	0x3c27bcc8	0.01023788
156	0xbd202d41	-0.039105657
157	0x3d8eb2e5	0.06967715
158	0x3c772f6e	0.015086992
159	0xbea28ab9	-0.31746462
160	0x3d2a0621	0.04150975
161	0xbe033220	-0.1281209
162	0xbd40012a	-0.04687611
163	0xbdfe4361	-0.12415195
164	0x3d105a64	0.035242453
165	0x3d91858f	0.071055524
166	0x3e043545	0.12910946
167	0xbda126ba	-0.07868715
168	0xbc4810b1	-0.012211011
169	0x3e1c385f	0.15255879
170	0x3d8fc369	0.070196934
171	0x3e536d62	0.20647195
172	0xbd933b83	-0.07189085
173	0x3de5b0a1	0.1121533
174	0x3e7fd83d	0.24984832
175	0x3d2c6c6f	0.042095598
176	0x3eb43221	0.35194495
177	0xbd17af18	-0.037032217
178	0x3b8976c8	0.004195068
179	0xbe5d7541	-0.2162676
180	0xbdac2027	-0.0840457
181	0x3e7e5943	0.24838738
182	0x3d49c606	0.049261115
183	0x3cc880d2	0.024475489
184	0xbe1c2679	-0.15249051
185	0x3e14629d	0.14490743
186	0xbe834778	-0.25640464
187	0x3e8f1bf7	0.27951023
188	0xbe7a1618	-0.2442249
189	0xbcc0181d	-0.023448998
190	0x3d92d3f9	0.07169337
191	0xbdbc4a69	-0.0919388
192	0xbc4478a3	-0.011991653
193	0x3ddea1bb	0.108706914
194	0xbe73821b	-0.237801
195	0x3e8ba5a4	0.2727481
196	0xbda7b24c	-0.08188304
197	0xbe3bb768	-0.18331683
198	0xbe4e1625	-0.20125635
199	0x3e833441	0.25625804
200	0xbe826e76	-0.254749
201	0x3e424e5d	0.18975206
202	0xbe2e95c9	-0.17049326
203	0xbcd243f6	-0.025667172
204	0xbe9227cb	-0.28545985
205	0xbe82468e	-0.25444454
206	0x3e1787e8	0.14797938
207	0xbd886016	-0.06658952
208	0xbe01ed9f	-0.12688302
209	0xbdfaf233	-0.12253227
210	0x3e13f69b	0.14449541
211	0xbe82fcc0	-0.25583458
212	0xbe22c17e	-0.15894124
213	0xbe914e9c	-0.28380287
214	0xbe75441f	-0.23951767
215	0xbe3655f6	-0.17806229
216	0x3e997b79	0.29977015
217	0xbddd410e	-0.10803424
218	0xbd925898	-0.07145804
219	0xbc040da2	-0.008059891
220	0xbe80a7ef	-0.25128123
221	0x3dbf9bb4	0.0935587
222	0x3e155123	0.14581732
223	0x3e8e0de2	0.27744967
224	0x3e0bd817	0.1365665
225	0x3e747ba2	0.23875287
226	0x3e5f7ef6	0.21825776
227	0x3e3c2021	0.18371631
228	0x3d994473	0.07483759
229	0xbdb7c8ec	-0.0897387
230	0xbd9783d1	-0.07398189
231	0xbd3a09f5	-0.045419652
232	0x3e23292d	0.15933676
233	0xbdbf37cc	-0.09336814
234	0x3e6c371e	0.230679
235	0x3db97ea1	0.09057356
236	0xbca99b9b	-0.020704081
237	0xbdd97fd5	-0.10620085
238	0x3e1a0ffb	0.15045159
239	0xbe9dd91b	-0.308297
240	0xbe43e4cf	-0.19130252
241	0x3e8bd57a	0.27311307
242	0xbdf1519c	-0.11783144
243	0xbdf843b5	-0.12122289
244	0xbcafe511	-0.021471532
245	0x3de6ea13	0.11275115
246	0x3dcdd5d4	0.1005055
247	0x3bb31c71	0.005466037
248	0x3d50d709	0.050986324
249	0x3de984bc	0.1140227
250	0xbc8ddd2b	-0.017317375
251	0x3d1bc613	0.038030695
252	0xbdf3a326	-0.118963525
253	0x3e9cf703	0.30657205
254	0x3d1063d8	0.03525147
255	0xbe0a32e0	-0.1349597

linear2.weight f4 [3, 256]
0	0xbdd4ff5b	-0.10400268
1	0xbaecb2e1	-0.0018058681
2	0x3cbb9730	0.02289924
3	0xbd46cb46	-0.0485337
4	0x3c2021bc	0.009773668
5	0x3cec44d9	0.028841423
6	0x3d3aec56	0.045635544
7	0xbc606c1f	-0.013697653
8	0xbba64048	-0.005073581
9	0x3ccd5eb2	0.025069568
10	0x3c75dad2	0.015005784
11	0x3bcb848b	0.0062108687
12	0x3c79e6f9	0.015252822
13	0xbd14762c	-0.03624551
14	0xbd272856	-0.04080995
15	0xbc6633b0	-0.014050409
16	0xbd156ea7	-0.03648248
17	0x3cf189c8	0.029484645
18	0x3c874523	0.01651246
19	0x3d35885a	0.044319488
20	0x3c3b03c7	0.011414475
21	0xbc4d4534	-0.012528706
22	0xbd98e666	-0.0746582
23	0xbdd0cabe	-0.1019492
24	0xbc4cd494	-0.012501854
25	0xbdac88c3	-0.08424523
26	0x3c81038d	0.015748763
27	0xbdba55a6	-0.090983674
28	0x3b64fc0b	0.0034940268
29	0x3c4e6b14	0.012598772
30	0x3c1e0af3	0.009646165
31	0x39668f5a	0.00021987912
32	0xbd882e39	-0.06649441
33	0x3d5616b3	0.05226774
34	0xbb305315	-0.002690499
35	0xbd6c5538	-0.05769846
36	0xb7463700	-1.1814525e-05
37	0x3b298f87	0.0025872902
38	0xbd100e03	-0.035169613
39	0xbdc75bf6	-0.09734337
40	0xbdbafda0	-0.091304064
41	0x3cb6020a	0.02221777
42	0xbc4eab7f	-0.01261413
43	0xbd40bd9b	-0.047055822
44	0xbc88d8d8	-0.016704962
45	0xbd80a758	-0.06281918
46	0x3baa7978	0.0052024685
47	0xbda14877	-0.0787515
48	0x3d48dcc0	0.04903865
49	0xbc644828	-0.013933219
50	0x3d0dfb58	0.03466353
51	0x3e0799cd	0.13242264
52	0x3bc955f7	0.006144281
53	0xbd192019	-0.037384126
54	0x3ccbc14f	0.02487245
55	0xbd46f6a0	-0.048575044
56	0xbd3bfad7	-0.045893516
57	0xbc329bdb	-0.010901417
58	0xbdae8c08	-0.085228026
59	0xbd8d8bb6	-0.06911413
60	0x3d239cfa	0.039944626
61	0xbd230dd4	-0.03980811
62	0x3d421541	0.04738355
63	0x3d17979c	0.03700982
64	0xbd46ef1c	-0.048567876
65	0xbd837247	-0.06418281
66	0xbd8ae50c	-0.067819685
67	0xbdb7173c	-0.089399785
68	0x3cc2a987	0.023762478
69	0xbc161afb	-0.009161706
70	0x3d4ee4d6	0.050511204
71	0xbdaeb00e	-0.085296735
72	0xbd7d585e	-0.06185185
73	0xbb10d220	-0.00220979
74	0xbe10fa33	-0.14157943
75	0xbdae6495	-0.08515278
76	0xbd331bf5	-0.043727834
77	0xbcdf7f52	-0.02728239
78	0x3da858d6	0.08220069
79	0x3ae03d3e	0.0017108095
80	0xb80505ba	-3.1715004e-05
81	0x3c76a7c6	0.015054649
82	0xbdb576dd	-0.08860562
83	0xbc83001a	-0.01599126
84	0xbc9c6a84	-0.01909376
85	0xbd061970	-0.032739103
86	0xbbd6d5a1	-0.0065562283
87	0x3d70ffc6	0.058837675
88	0xbd07b7bb	-0.033134203
89	0xbd8f8e49	-0.070095606
90	0xbc2487d5	-0.0100421505
91	0x3c7466d0	0.014917091
92	0x3cdc4498	0.026888177
93	0xbd5935e3	-0.053029906
94	0xbc7797b1	-0.01511185
95	0xbba895c2	-0.0051448056
96	0x3d40ffed	0.04711907
97	0xbd859b68	-0.06523782
98	0xbc8636ec	-0.01638361
99	0xbde33974	-0.11094943
100	0xbd8ad067	-0.06778031
101	0xbdb1c55a	-0.0868022
102	0xbd98f2a3	-0.07468154
103	0xbc99906f	-0.01874563
104	0xbd47de9a	-0.048796274
105	0xbd8b2fd3	-0.06796231
106	0xbb96e502	-0.0046049366
107	0x3c823342	0.015893582
108	0xbbee48f4	-0.0072718803
109	0x3c2fbfd4	0.010726888
110	0xbccc72e5	-0.02495713
111	0xbd8c9d6b	-0.068659626
112	0xbd6466cb	-0.055762094
113	0xbce6e46d	-0.028185094
114	0x3ca05a93	0.01957444
115	0xbb3a1a44	-0.0028397003
116	0x3b93f0ea	0.004514803
117	0x3d71b170	0.05900711
118	0x3dc494f6	0.095987245
119	0xbdcb2a0d	-0.0992013
120	0xbd8a1b3c	-0.06743476
121	0x3bc7bd38	0.0060955547
122	0xbd636136	-0.05551263
123	0xbd0a7cd5	-0.033810455
124	0xbc72a0bc	-0.01480883
125	0x3ce641b5	0.028107503
126	0xbd3a81c7	-0.04553392
127	0xbd00c752	-0.031440087
128	0x3cb78e63	0.022406762
129	0xbabfe884	-0.0014641439
130	0x3b6f065e	0.00364723
131	0xbd940d30	-0.07229078
132	0x3cc441a7	0.023957087
133	0xbd269065	-0.04066505
134	0x3d50e0a0	0.05099547
135	0x3b4a5eee	0.0030879336
136	0x3d5da7ca	0.054115094
137	0x3d579c90	0.052639544
138	0x3c048395	0.008088012
139	0xbc3278bd	-0.010893044
140	0xbe1ebe4b	-0.15502279
141	0xbcbea06e	-0.023269858
142	0xbc05bae4	-0.008162234
143	0xbd6b6f38	-0.057479113
144	0xbd4f0c86	-0.050549053
145	0xbd57e0c7	-0.0527046
146	0xbd5688c9	-0.052376542
147	0xbdd8657e	-0.10566233
148	0x3d98881e	0.07447837
149	0x3cb105ac	0.02160915
150	0xbdb641e2	-0.08899285
151	0xbd6a333c	-0.057177767
152	0xbd17fa06	-0.037103675
153	0xbd40d425	-0.047077317
154	0xbcc08c14	-0.023504294
155	0xbdb9b956	-0.09068553
156	0x3b3045f0	0.0026897155
157	0x3befd11c	0.007318629
158	0x3d79f72d	0.06102674
159	0x3d138759	0.03601775
160	0xbd8f1112	-0.06985678
161	0x3be39e72	0.0069463784
162	0xbd6bf492	-0.057606287
163	0x3d2cf3ac	0.04222457
164	0xbd32856c	-0.043584272
165	0x3d6b74a6	0.05748429
166	0x3a4aca4a	0.0007735832
167	0xbd990dc9	-0.074733324
168	0x3ca25f77	0.019820912
169	0x3c550f70	0.013004169
170	0xbdbb1f9c	-0.091368884
171	0xbd86cfde	-0.06582616
172	0xbb8409ed	-0.0040295036
173	0xbc66d317	-0.014088414
174	0xbdcd2f0d	-0.1001874
175	0xbdaf0037	-0.08544963
176	0xbdbf0202	-0.09326555
177	0xbcd2992f	-0.02570781
178	0x3bd1a442	0.006397755
179	0xbd70f90d	-0.058831263
180	0x3cfb1bb1	0.030652853
181	0xbdad0cf8	-0.08449739
182	0xbd16323a	-0.036668994
183	0xbd352cb9	-0.044232104
184	0xbcced5dd	-0.025248462
185	0xbd0052a8	-0.031328827
186	0x3ce63346	0.028100621
187	0xbd93be98	-0.07214087
188	0xbb8d3108	-0.0043088235
189	0xbd37c7c1	-0.044868235
190	0xbd0edf81	-0.03488112
191	0x3b99cdd7	0.0046937275
192	0xbd00ba3f	-0.031427618
193	0xbdb1ad1f	-0.08675598
194	0x3ca4e3fa	0.020128239
195	0xbdc870e9	-0.09787161
196	0x3cf8ffb2	0.030395363
197	0xbd2c46a4	-0.042059556
198	0x3cc68c3b	0.024236789
199	0xbc400f57	-0.011722407
200	0xbdb0c297	-0.08630865
201	0xbbb4e824	-0.0055208374
202	0xbd49a657	-0.0492309
203	0xbdb73ee2	-0.08947541
204	0x3b15dbec	0.002286668
205	0x3c8e90e8	0.017403081
206	0xbdd79714	-0.10526863
207	0x3bd9f7cc	0.006651854
208	0xbcbf1120	-0.023323596
209	0xbd7a1f80	-0.061065197
210	0x3d048c13	0.032360148
211	0xbcf0f0b2	-0.029411647
212	0x3af5373c	0.0018708478
213	0xbc3f4818	-0.011674903
214	0x3d1ed81c	0.038780317
215	0xbd92858d	-0.07154379
216	0xbde45fb5	-0.11151067
217	0xbd6c2809	-0.057655368
218	0xbd31e00b	-0.043426555
219	0x3d91c8fc	0.07118413
220	0x3c47c61e	0.012193231
221	0x3cf142d5	0.029450813
222	0xbdc7871f	-0.09742569
223	0xbddb8b94	-0.10719982
224	0xbbc567f1	-0.0060243537
225	0xbca652a2	-0.020303074
226	0xbce09cfe	-0.02741861
227	0x3b8539f8	0.0040657483
228	0xbd8e4280	-0.069462776
229	0x3d6ed424	0.05830778
230	0x3c8bb560	0.01705426
231	0xbc5cb676	-0.013471236
232	0xbcad9e2a	-0.021193583
233	0xbc218dd0	-0.009860471
234	0xbc1c59b5	-0.009542872
235	0xbd5504dd	-0.05200659
236	0xbd77a145	-0.060456533
237	0xbcecfb37	-0.028928382
238	0x3c61fc5e	0.013793079
239	0x3d312ea4	0.04325737
240	0x3c92105a	0.017830063
241	0x3ce20d49	0.027594225
242	0xbcb46b98	-0.022023961
243	0x383643e0	4.3455395e-05
244	0x3c1089d4	0.008821923
245	0xbcc001ea	-0.023438413
246	0xbd45b621	-0.048269395
247	0xbce02e54	-0.027365841
248	0xbd93ac17	-0.07210558
249	0xbbf6e204	-0.0075342674
250	0x3d2e44ea	0.04254619
251	0xbc0ee83a	-0.008722359
252	0x3cdd8c88	0.02704455
253	0x3b8b51e6	0.0042517064
254	0xbcfe2130	-0.031021684
255	0xbc3567eb	-0.011072139

linear2.bias f4 [3]
0	0xbd158a2f	-0.036508735
1	0xbccec676	-0.025241118
2	0xbdc5872c	-0.096449226
